cnnModel.tflite (tflite, 741824 bytes, 16 tensors)

sequential_2/conv2d/Relu;sequential_2/conv2d/BiasAdd;sequential_2/conv2d/Conv2D;sequential_2/conv2d/BiasAdd/ReadVariableOp f4 [32, 3, 3, 3]
0	0xb9e5df65	-0.00043844726
1	0xb929b32a	-0.0001618384
2	0x392037f6	0.00015279636
3	0x38fa0147	0.00011921167
4	0xba11131e	-0.000553416
5	0xb9c64d79	-0.00037823225
6	0xb9673503	-0.00022049625
7	0xb9d8c8de	-0.00041348388
8	0xba2193a2	-0.00061636616
9	0xb9d16956	-0.00039942068
10	0x39c716f7	0.00037973348
11	0xb8b90802	-8.822979e-05
12	0xb9ac24f3	-0.00032833926
13	0xb8a598cf	-7.896276e-05
14	0x39fe9a21	0.0004856149
15	0xb8655653	-5.467825e-05
16	0x3813daa6	3.5251163e-05
17	0x39174a75	0.0001442822
18	0x39082de8	0.00012987072
19	0x39a46d3e	0.0003136191
20	0x3967eeb4	0.000221188
21	0x3980bc4a	0.0002455435
22	0x3907d6f9	0.00012954687
23	0xb7219eb6	-9.633301e-06
24	0x38fee4e1	0.00012154296
25	0xb99df575	-0.00030128253
26	0xb996c4f7	-0.0002875698
27	0xb9f9845d	-0.000475916
28	0xba280994	-0.00064101187
29	0xb8aca221	-8.231798e-05
30	0x39c04fe4	0.00036680617
31	0x399ed793	0.00030296724
32	0x3a294cc8	0.00064582797
33	0x39c45d8d	0.00037453734
34	0xba076704	-0.0005165192
35	0x3998878d	0.00029092692
36	0xb8ca6e0a	-9.652607e-05
37	0xb9c97d69	-0.00038431145
38	0x3785bbd9	1.5942309e-05
39	0xb9872a91	-0.0002578092
40	0x39500ab7	0.00019840417
41	0xb8e4bef4	-0.00010907455
42	0x392cfe37	0.000164979
43	0x3989c8df	0.00026280337
44	0xb962bffc	-0.0002162456
45	0xba042942	-0.0005041548
46	0xb9afd790	-0.00033539208
47	0x39ed4460	0.00045255106
48	0x3957c061	0.00020575665
49	0x38699b0e	5.5695935e-05
50	0x3a078ef0	0.00051711407
51	0x382afa97	4.076454e-05
52	0xb915eaee	-0.00014297265
53	0x3a2386c5	0.0006238039
54	0xb9b89384	-0.00035205123
55	0xb993c900	-0.00028187782
56	0x3a15d0eb	0.000571503
57	0x3854e37d	5.0756604e-05
58	0xba0d29ae	-0.0005384934
59	0x36e4445e	6.8028885e-06
60	0xb9a5a955	-0.00031597415
61	0xb9367642	-0.00017400927
62	0xb980c337	-0.0002455951
63	0xb8f30231	-0.00011587551
64	0xb9e41f50	-0.00043510878
65	0x394b8d87	0.00019412312
66	0x3968a3cf	0.00022186268
67	0x391bce2c	0.00014858757
68	0xb93d5c36	-0.00018058796
69	0xb95b5ff5	-0.00020921214
70	0xb97e1106	-0.0002422967
71	0xb99a8afd	-0.00029476723
72	0x38805822	6.119932e-05
73	0x3954b441	0.00020285045
74	0x398ad57a	0.00026480464
75	0xb9374539	-0.00017478027
76	0xb83d8b14	-4.5190638e-05
77	0xb8e27e9b	-0.00010800102
78	0xb860e89e	-5.3622403e-05
79	0xb7db2557	-2.6124222e-05
80	0x39238789	0.00015595382
81	0x391a634f	0.0001472358
82	0xb9fe5008	-0.00048506283
83	0xb9e26640	-0.0004318226
84	0xb6a5b990	-4.9389855e-06
85	0x38c37831	9.320712e-05
86	0x387c6624	6.0176608e-05
87	0xba2add58	-0.0006517968
88	0xba04bd9f	-0.0005063656
89	0xba14e5cd	-0.0005679995
90	0x37ead674	2.7994836e-05
91	0x3a0e24ce	0.00054223544
92	0xb9af9ec1	-0.00033496882
93	0x39a9d2a1	0.00032391123
94	0xb88bbda8	-6.663363e-05
95	0xb9d45dbf	-0.00040505637
96	0xb9a26f32	-0.00030981895
97	0x3991e244	0.00027825136
98	0x37b8c544	2.2026368e-05
99	0x39a54041	0.00031519125
100	0xb9c3a9ca	-0.000373198
101	0x39c8165a	0.00038163626
102	0x3a18ca3c	0.0005828475
103	0x39f30e36	0.0004635916
104	0xb8fbafaa	-0.00012001333
105	0x39e0b110	0.0004285653
106	0xb9c03b52	-0.0003666529
107	0x37792425	1.4849972e-05
108	0x39e83883	0.00044292593
109	0x3897d2df	7.239519e-05
110	0x3a05bb48	0.00051014544
111	0x3a1c48dd	0.0005961785
112	0x3911e55f	0.00013913725
113	0x38ae00e1	8.29713e-05
114	0xb93fed80	-0.00018303655
115	0xb9df99b9	-0.00042648407
116	0xb8bba227	-8.947058e-05
117	0xb8d08dca	-9.944623e-05
118	0xb92e7dd3	-0.00016640806
119	0x39874023	0.00025796992
120	0xb9dc7a0f	-0.0004205261
121	0xba242e9d	-0.00062630494
122	0xb9cc616f	-0.00038982506
123	0xb9c6f21f	-0.00037945897
124	0x390d27bf	0.00013461614
125	0xb9b283fa	-0.00034049136
126	0x38c6cf3f	9.479978e-05
127	0xb8ca3c08	-9.643292e-05
128	0xb9c07e5c	-0.0003671524
129	0x396292be	0.00021607705
130	0xb95580e9	-0.00020361286
131	0x38a38558	7.797283e-05
132	0x3a00e6f7	0.0004917229
133	0xb9b532b1	-0.00034560778
134	0x39eff549	0.00045768384
135	0xb877294e	-5.8927857e-05
136	0x3914b6b8	0.00014182448
137	0x39da2b4a	0.00041612453
138	0x397b2cee	0.00023953963
139	0xb9b877a9	-0.0003518437
140	0x37f2876f	2.8911714e-05
141	0x393f3840	0.00018236134
142	0xb9dcddb6	-0.00042126857
143	0xb9f5af6a	-0.00046860735
144	0xb5535e61	-7.8740965e-07
145	0xba4ae127	-0.0007739239
146	0xb9c191fb	-0.00036920593
147	0xb9a4434a	-0.00031330652
148	0xb9bf175b	-0.0003644776
149	0xb8fc288a	-0.000120238474
150	0xba0cb735	-0.0005367876
151	0xb9206836	-0.0001529761
152	0xb9b63c9b	-0.000347589
153	0xb9831fdb	-0.0002501
154	0xb9f165ec	-0.0004604304
155	0xb9d60784	-0.0004082286
156	0xb9969ac3	-0.00028725536
157	0xb3c4f0fb	-9.170795e-08
158	0xb9a96ecf	-0.0003231675
159	0xba0fd6bd	-0.00054870156
160	0x361806c1	2.2653696e-06
161	0x386ad35f	5.5986802e-05
162	0x39408346	0.0001835945
163	0x39c9b892	0.00038475223
164	0xb795aa46	-1.7841474e-05
165	0xb9861f9b	-0.0002558202
166	0xb9eae174	-0.00044799934
167	0x384e8b3a	4.9243892e-05
168	0xb7780ae5	-1.47844885e-05
169	0x39949b5d	0.00028344514
170	0x39b79378	0.00035014353
171	0xb8a1aeee	-7.7096614e-05
172	0x38c27fa2	9.274414e-05
173	0x398f4b80	0.00027331337
174	0x39420252	0.00018502146
175	0x3a04ed49	0.00050707586
176	0x37d6d479	2.5609728e-05
177	0xb97ed124	-0.00024301239
178	0x3976d0bb	0.00023538146
179	0x3a0969b7	0.0005241888
180	0xb99ead91	-0.00030265425
181	0xb94c3302	-0.00019473958
182	0xb9b789c7	-0.00035007132
183	0xb9f6bfea	-0.00047063763
184	0x39d48070	0.00040531484
185	0x39e47068	0.00043571298
186	0x383e5c80	4.5385677e-05
187	0xb84920f0	-4.795281e-05
188	0x3a03d4a6	0.00050289405
189	0xb8b60287	-8.678907e-05
190	0xba36092f	-0.00069441175
191	0xb9681699	-0.00022133662
192	0x39504acf	0.00019864294
193	0xb8c9c421	-9.620959e-05
194	0x388a8954	6.605932e-05
195	0x39c4c58e	0.00037531223
196	0x392f55f0	0.00016721315
197	0x39ab93cb	0.00032725776
198	0xb94096a5	-0.00018366666
199	0xba10d3bd	-0.00055247155
200	0x36e8f838	6.9430353e-06
201	0x39550fec	0.00020319194
202	0x39dd7537	0.00042239737
203	0xb9965162	-0.00028670864
204	0x39920b45	0.00027855686
205	0x39cd190b	0.00039119305
206	0xb9a3af90	-0.00031220587
207	0xb984bc00	-0.00025317073
208	0xb9af17d5	-0.00033396357
209	0xb846928b	-4.7343357e-05
210	0x3744a2e0	1.1720433e-05
211	0xb77d8caa	-1.5112726e-05
212	0xb8fabc3c	-0.0001195599
213	0x39c84f7e	0.000382062
214	0x3a0851bc	0.00052001677
215	0x39e39e4b	0.0004341475
216	0xb96823d3	-0.0002213859
217	0xb9d8ebc9	-0.00041374404
218	0x3925964d	0.00015791618
219	0x3976a41d	0.00023521525
220	0x3940e512	0.00018395882
221	0xb87f073b	-6.080347e-05
222	0x38b7dff4	8.7678345e-05
223	0x3901e7b1	0.0001238871
224	0xba0d7789	-0.0005396535
225	0x39e69aa2	0.0004398423
226	0xb9866da2	-0.00025640154
227	0xb9f13cfd	-0.00046012542
228	0xba02a287	-0.0004983325
229	0x39e3cae9	0.00043447994
230	0xba214182	-0.0006151424
231	0x394e9eaf	0.00019704805
232	0x39e32565	0.00043324675
233	0xb99dbd53	-0.0003008643
234	0x39a112dd	0.00030722367
235	0xb9f98681	-0.00047593194
236	0xb85b677e	-5.2310053e-05
237	0x39819fc3	0.0002472383
238	0x38b1e72f	8.483079e-05
239	0x39a64d85	0.00031719744
240	0xb9908fd5	-0.00027572984
241	0xb92e202c	-0.00016605918
242	0xb99ebd99	-0.0003027737
243	0xba2163e3	-0.0006156547
244	0xb9420aa0	-0.0001850524
245	0xb9dffad1	-0.00042720747
246	0xb8dab606	-0.000104289546
247	0x38756640	5.850778e-05
248	0xb9c1467d	-0.00036864346
249	0x396e5fdc	0.00022733159
250	0x38dd3098	0.000105471525
251	0xb9ae5130	-0.00033248356
252	0xb8f5f0ec	-0.000117273856
253	0xb9ffc2b1	-0.00048782447
254	0x39e23e23	0.00043152375
255	0xb7306a55	-1.0515175e-05

sequential_2/conv2d/BiasAdd/ReadVariableOp f4 [32]
0	0xbc81c202	-0.01583958
1	0xbd96f01e	-0.073700175
2	0xbc099777	-0.008397928
3	0x3b87abf9	0.004140374
4	0x3d98be4f	0.074581735
5	0x3d659590	0.056050837
6	0xbc70552f	-0.014668747
7	0xbce389ba	-0.027775634
8	0xbd129070	-0.035782278
9	0xbc00b33f	-0.007855236
10	0xbc86e267	-0.016465379
11	0xbb85ac41	-0.004079372
12	0xbce3ca85	-0.02780653
13	0xbc925056	-0.017860573
14	0xbc55a119	-0.013038897
15	0x3d9acf43	0.07559063
16	0xbd7f660b	-0.062353175
17	0xbc002641	-0.00782162
18	0xbd837546	-0.064188525
19	0xbd82bee0	-0.06384063
20	0xbb6255b8	-0.0034535956
21	0x3c7a65ac	0.0152830295
22	0x3d66386f	0.056206163
23	0x3c760250	0.0150152
24	0xbc08c97c	-0.008348819
25	0x3d00850c	0.031376883
26	0x3d6139b3	0.054986667
27	0x3d9e368d	0.077252485
28	0xbc322bad	-0.010874671
29	0xbd0d4c08	-0.034496337
30	0xbc15f31f	-0.009152203
31	0xbda51e31	-0.08062399

sequential_2/conv2d_1/BiasAdd/ReadVariableOp f4 [64]
0	0xbcaa5681	-0.020793201
1	0xbae658d0	-0.0017574076
2	0xbc086aea	-0.008326272
3	0xbc5bcd64	-0.013415668
4	0x3c6dd29f	0.014515548
5	0x3c048c03	0.008090022
6	0xbd242438	-0.040073603
7	0xbc1c0d68	-0.009524681
8	0x3d94d385	0.07266907
9	0x3d32830f	0.04358202
10	0x3d0fc492	0.035099573
11	0xbccc6b52	-0.024953518
12	0x3c4d927f	0.012547134
13	0xbca96b12	-0.020680938
14	0xbc87baf2	-0.016568635
15	0xbd19099c	-0.03736268
16	0xbbc2e152	-0.0059472704
17	0x3c147a37	0.009062341
18	0x3d691747	0.056906965
19	0x3bd25548	0.0064188577
20	0x3c89181f	0.016735135
21	0xbd277b68	-0.040889174
22	0xbbd40e63	-0.0064714416
23	0x3c8a57de	0.016887601
24	0x3c8e2f20	0.017356455
25	0x3d149143	0.036271345
26	0xbcb4c393	-0.022065913
27	0xbc99ce5d	-0.01877516
28	0xbd8fee32	-0.07027854
29	0xbc8e1af1	-0.017346831
30	0xbd16e3c3	-0.036838304
31	0xbc8b3f98	-0.016998097
32	0xbc5b7cb9	-0.013396435
33	0xbb5c209d	-0.0033588775
34	0x3b08b542	0.0020859991
35	0xbc8e08ca	-0.017338175
36	0xbd44de6b	-0.048063677
37	0x3ca4db13	0.020123994
38	0xbd346f02	-0.044051178
39	0xbc500912	-0.012697475
40	0x3b8b7211	0.004255541
41	0xbd127139	-0.03575251
42	0xbcdd2428	-0.02699478
43	0xbd0d66f9	-0.03452203
44	0xbcc28a13	-0.02374748
45	0xbcdf6794	-0.02727107
46	0xbcdb6a94	-0.026784219
47	0x3cd00563	0.025393194
48	0xbc179ec7	-0.009254164
49	0xbc1f49dc	-0.009722199
50	0xbd7d2a1c	-0.061807737
51	0xbcb54b8c	-0.02213075
52	0xbc80d77e	-0.015727755
53	0x3c4d9e5c	0.012549963
54	0x3d0d8719	0.034552667
55	0xbc82453c	-0.015902154
56	0xbcea920f	-0.0286341
57	0xbc749216	-0.014927408
58	0xbd2a3922	-0.041558392
59	0x3c8fe855	0.01756684
60	0xbcb32a50	-0.021870762
61	0xbc58b47c	-0.013226625
62	0x3d038aa5	0.032114644
63	0x3cd7189c	0.026256852

sequential_2/conv2d_2/BiasAdd/ReadVariableOp f4 [64]
0	0x3bd38ca3	0.006455974
1	0xbba9ba46	-0.005179676
2	0xbcdac1be	-0.026703712
3	0xbd3b01fd	-0.045656193
4	0xbd3c203b	-0.045929175
5	0xbc72eedd	-0.014827457
6	0xbc88c5fd	-0.01669597
7	0xbcaf80d3	-0.021423733
8	0xbd47fd51	-0.048825566
9	0xbc2fb5b5	-0.010724475
10	0x3c70e3ca	0.014702747
11	0xbd86158d	-0.06547079
12	0x3ab5562f	0.0013834889
13	0xbd8e93e5	-0.069618024
14	0xbd1b8d19	-0.037976358
15	0x3c1ac94c	0.009447407
16	0xbcaadda6	-0.020857643
17	0x3d14735d	0.03624283
18	0x3bcd2606	0.0062606363
19	0xbce98720	-0.028506815
20	0xbc865265	-0.01639671
21	0xbcb02ce2	-0.021505777
22	0xbc4017ac	-0.011724394
23	0xbd5261c8	-0.051362783
24	0xbc8a6be7	-0.016897155
25	0xbcf7d924	-0.030254908
26	0x3cac4887	0.021030677
27	0x3cbe966e	0.02326509
28	0xbcac7a20	-0.021054327
29	0x3d0e04c1	0.034672502
30	0xbd4b41f4	-0.049623445
31	0xbc199dd1	-0.009376005
32	0xbc9281d7	-0.017884178
33	0xbda47898	-0.08030814
34	0xbcfb25b0	-0.03065762
35	0xbcc6dee2	-0.0242762
36	0xbc93435c	-0.017976455
37	0x3bdf5415	0.0068154433
38	0x3d54d515	0.051961023
39	0xbcd3b902	-0.025845055
40	0xbd01918f	-0.031632956
41	0x3d25aae6	0.040446185
42	0xbb1328b9	-0.0022454693
43	0xbc416274	-0.011803258
44	0x3d152c36	0.036419116
45	0xbc5df7d2	-0.0135478545
46	0xbc3471a5	-0.011013423
47	0xbd8e1599	-0.06937713
48	0x3c0e9f3d	0.008704958
49	0xbd8c7400	-0.06858063
50	0xbd491cc8	-0.049099714
51	0xbc876761	-0.016528787
52	0xbda6b972	-0.0814084
53	0x3ccf8b6d	0.025335038
54	0x3addeff1	0.001693247
55	0xbd15c808	-0.036567718
56	0xbba5c2d4	-0.0050586257
57	0x3c4bdea9	0.012443223
58	0x3c4b9c4e	0.012427403
59	0xbce94c9d	-0.028478915
60	0xbc7ba5bc	-0.015359338
61	0x3cc09a25	0.023511002
62	0xbd2689a7	-0.04065862
63	0xbcd82ae8	-0.026387647

sequential_2/conv2d_3/BiasAdd/ReadVariableOp f4 [64]
0	0x3cd08da9	0.025458174
1	0x3cf57a29	0.029965477
2	0x3d2e7b9b	0.042598348
3	0xba88b92e	-0.0010431164
4	0x3cce66e1	0.02519554
5	0xbc9f289b	-0.019428542
6	0xbdd44b41	-0.10365916
7	0xbccd4e2b	-0.025061687
8	0xbd714678	-0.058905095
9	0xbd107764	-0.03527011
10	0xbc24678e	-0.010034455
11	0x3d26e197	0.040742483
12	0xbd08edd6	-0.033429943
13	0xbcee5fb2	-0.029098365
14	0x3c516554	0.012780506
15	0xbcc8510b	-0.024452707
16	0xbccb6ae5	-0.024831245
17	0xbcb75ccd	-0.022383118
18	0x3cc03519	0.023462819
19	0xbd03efd3	-0.032211136
20	0xbc3350bc	-0.010944542
21	0xbc00d836	-0.007864049
22	0xbd26fc3b	-0.04076789
23	0xbd41d8ec	-0.047326013
24	0x3c155c9d	0.009116319
25	0x3bb88ff2	0.005632394
26	0x3c98c750	0.018649727
27	0x3b722b32	0.0036952016
28	0xbce5248f	-0.027971534
29	0x3c94cabc	0.018163078
30	0xbbaea506	-0.005329731
31	0xbd231bfb	-0.039821606
32	0xbbc912a5	-0.006136256
33	0x3d2f085c	0.04273258
34	0xbd71b64f	-0.059011754
35	0xbc0155b6	-0.00789397
36	0xbcfdd054	-0.030983128
37	0xbb913850	-0.004431762
38	0xbd365936	-0.044518672
39	0xbd388bf7	-0.045055356
40	0x3b48909a	0.0030603767
41	0xbd145a36	-0.036218844
42	0xbd720140	-0.059083223
43	0xbcb40f5b	-0.021979978
44	0xbda04807	-0.07826238
45	0xbca6ab27	-0.020345284
46	0xbce8e4ad	-0.028429354
47	0xbd643b52	-0.055720635
48	0xbb8f3e7f	-0.004371464
49	0xbd1e176f	-0.038596567
50	0xbd33f584	-0.043935314
51	0xbd1955ad	-0.037435222
52	0xbd687ad8	-0.056757778
53	0xbc8b74b6	-0.017023426
54	0xbccec784	-0.02524162
55	0x3d32c245	0.0436423
56	0xbd2536b2	-0.040335365
57	0xbd0bd6e9	-0.0341405
58	0xbda85a8a	-0.08220394
59	0xbd6e2626	-0.05814185
60	0xbc3a84d4	-0.011384208
61	0xbdaadf13	-0.08343329
62	0xbd957dfe	-0.07299422
63	0xbcb83a12	-0.022488628

sequential_2/conv2d_4/BiasAdd/ReadVariableOp f4 [64]
0	0xbd96308d	-0.07333479
1	0x3cc9bfe4	0.024627633
2	0x3ce58f88	0.028022543
3	0x3d03c788	0.03217271
4	0xbbb731f9	-0.005590674
5	0xbc79fda1	-0.015258224
6	0xbd4a6f0e	-0.049422316
7	0xbca1e340	-0.019761682
8	0xbda9d449	-0.08292443
9	0xbd8e4cf6	-0.06948273
10	0xbc8b264e	-0.016986039
11	0xbc757d17	-0.014983437
12	0x3cfe2381	0.031022789
13	0xbc015674	-0.007894147
14	0xbcaf8f3d	-0.021430606
15	0x3d08b29e	0.033373468
16	0xbd17ecf0	-0.037091196
17	0x3dd2a81e	0.10285972
18	0xbcb16a58	-0.021657154
19	0x3d1e0b8e	0.03858524
20	0xbc8c6536	-0.017138105
21	0xbd40b118	-0.04704389
22	0xbc18ef75	-0.009334435
23	0xbd97f532	-0.07419814
24	0xbc34dff1	-0.01103972
25	0x3dde7d5e	0.10863756
26	0xbd3779cf	-0.0447939
27	0xbd3aaae5	-0.045573134
28	0xbbfe3ef8	-0.0077589713
29	0xbc989631	-0.018626304
30	0x3d8e8283	0.06958487
31	0xbd418645	-0.04724719
32	0x3c81b4a1	0.0158332
33	0xbd8d2665	-0.06892089
34	0xbc978c04	-0.018499382
35	0xbbb1a393	-0.005421111
36	0x3da067cd	0.078322984
37	0xbc22cb07	-0.009936101
38	0x3deaffb3	0.11474552
39	0xbc19f07c	-0.009395715
40	0xbc770a9e	-0.015078215
41	0xbbcdd7e8	-0.0062818415
42	0xbd13dc22	-0.036098607
43	0x3da8a4f2	0.08234586
44	0xbd7d109c	-0.061783418
45	0xbd3348e9	-0.043770704
46	0xbcf896f8	-0.030345425
47	0xbccb1ecb	-0.024794957
48	0x3df4da90	0.1195575
49	0xbd131e7d	-0.035917748
50	0xbd1be626	-0.038061284
51	0xbd947ddb	-0.072505675
52	0x3dff08bb	0.12452837
53	0xbc26d011	-0.010181443
54	0xbd09ed48	-0.033673555
55	0xbc8089f4	-0.015690781
56	0xbd84298a	-0.064532354
57	0xbd364fc2	-0.044509657
58	0xbd6439a2	-0.055719025
59	0xbd87967c	-0.066204995
60	0xbd2c7bda	-0.0421103
61	0xbc8e4097	-0.017364783
62	0xbd6cc06a	-0.057800688
63	0xbc092145	-0.0083697485

sequential_2/conv2d_5/BiasAdd/ReadVariableOp f4 [64]
0	0xbd091fe6	-0.033477686
1	0xbcb2276f	-0.021747319
2	0x3e09eec1	0.13469984
3	0xbcbf982f	-0.023387996
4	0xbd936291	-0.071965344
5	0xbc321009	-0.010868081
6	0xbd774950	-0.06037265
7	0xbe04abe7	-0.129562
8	0xbd87c25f	-0.0662887
9	0xbd45a363	-0.04825152
10	0xbc39c5ef	-0.011338695
11	0xbc6bc131	-0.014389322
12	0x3e174201	0.14771272
13	0xbe039a80	-0.12851906
14	0x3ced3d4f	0.028959898
15	0xbc9b5310	-0.018960506
16	0xbddea518	-0.10871333
17	0x3d55d7ac	0.052207634
18	0xb9bf36a0	-0.00036471058
19	0xbd9047a4	-0.07044914
20	0xbda95e1c	-0.08269903
21	0x3e17dc8c	0.14830226
22	0x3deb6fd1	0.11495937
23	0xbd409115	-0.04701336
24	0xbcd73cd8	-0.02627413
25	0x3db63665	0.08897094
26	0xbd482d11	-0.048871104
27	0xbc77d494	-0.015126366
28	0xbdd5f972	-0.104479685
29	0xbd0b70a3	-0.034042966
30	0xbc841588	-0.016123548
31	0xbdbc3db3	-0.09191456
32	0xbc4c3481	-0.01246369
33	0xbda8d31a	-0.082433894
34	0x3d4d6e5c	0.050154075
35	0xbbcfcef8	-0.0063418113
36	0xbd097de7	-0.033567335
37	0x3d9e12fb	0.07718464
38	0xbda7f019	-0.08200092
39	0x3e2edf3b	0.17077343
40	0x3cc0c2d3	0.0235304
41	0xbd83b6ca	-0.064313486
42	0xbd388827	-0.04505172
43	0x3dd93073	0.10604944
44	0x3e39b5c7	0.18135749
45	0xbd29cb27	-0.041453507
46	0xbcfcab62	-0.03084344
47	0xbc05e15c	-0.008171406
48	0xbd86afb2	-0.0657648
49	0xbd12425b	-0.035707813
50	0xbcfb3883	-0.030666595
51	0xbd80fa39	-0.06297726
52	0x3dc8dedb	0.09808131
53	0x3da3f375	0.0800542
54	0x3e0bad55	0.1364034
55	0xbcad0fee	-0.02112576
56	0xbd83fbb8	-0.06444496
57	0xbd89974c	-0.06718311
58	0xbd221aaf	-0.03957623
59	0xbb8b96b0	-0.0042599067
60	0x3b1f2d08	0.0024288315
61	0xbc26d1dc	-0.01018187
62	0xbbde39e2	-0.0067818025
63	0x3e520743	0.20510583

sequential_2/conv2d_1/Conv2D f4 [64, 3, 3, 32]
0	0xbcd3ff66	-0.02587862
1	0x3d9bafe7	0.0760191
2	0xbd6dcad5	-0.058054764
3	0xbce8219f	-0.028336344
4	0x3d80a801	0.06282044
5	0x3de9daf3	0.114187144
6	0xbd9df004	-0.07711795
7	0x3c6788d0	0.01413174
8	0xbc98cf0d	-0.018653417
9	0x3e0f5a1a	0.13999215
10	0x3d8c79e7	0.068591885
11	0xbd539bb8	-0.051662177
12	0xbcdcf3ae	-0.026971664
13	0x3c0b07ec	0.008485775
14	0xbd8ec4cb	-0.06971129
15	0x3d396a95	0.04526766
16	0xbddf97f7	-0.10917657
17	0xbde09478	-0.10965818
18	0x3c8cfe9a	0.017211247
19	0xbdacdf04	-0.08440974
20	0x3e0dbcc9	0.13841547
21	0x3cb083b2	0.021547172
22	0x3cd2f7cb	0.025752923
23	0x3cd26e1e	0.025687274
24	0xbd82565d	-0.06364129
25	0xbcbfa17e	-0.023392435
26	0x3da8fbba	0.08251138
27	0x3b07eb6f	0.0020739695
28	0x3d47bdc6	0.048764966
29	0xbcd151bf	-0.025551675
30	0x3d9e87be	0.077407345
31	0xbd2bae31	-0.04191417
32	0xbcfedaf7	-0.03111027
33	0x3cc01ca5	0.023451159
34	0xbd493302	-0.04912091
35	0x3d6440f8	0.05572602
36	0x3cf13661	0.029444875
37	0x3df6cc85	0.12050728
38	0x3c674314	0.014115114
39	0xbe0312a4	-0.1280008
40	0xbd7042fd	-0.058657635
41	0x3e15f574	0.14644414
42	0xbc5a04f2	-0.013306843
43	0x3dc5b093	0.096528195
44	0x3d4516de	0.04811751
45	0xbd6937b1	-0.056937877
46	0x3d019e49	0.031645093
47	0xbd266136	-0.04062005
48	0xbd2171fc	-0.039415345
49	0xbe015757	-0.12630974
50	0xbd4ba7f4	-0.04972072
51	0xbd81eaef	-0.06343638
52	0x3e09c2b9	0.13453187
53	0x3d4b9d34	0.049710467
54	0x3d6cc862	0.057808287
55	0x3db0bdd4	0.08629957
56	0xbdcbadfc	-0.09945294
57	0xbe0ae09f	-0.13562249
58	0x3bd52fde	0.0065059504
59	0x3d1a6e9d	0.037703145
60	0x3d7400ee	0.0595712
61	0xbbf01d08	-0.0073276795
62	0x3decd450	0.11563933
63	0xbdfee221	-0.124454744
64	0xbd75b745	-0.059989233
65	0xbdb90348	-0.09033829
66	0x3d41b7e5	0.047294516
67	0xbd14a3f3	-0.036289167
68	0x3e0986db	0.1343035
69	0x3d9271db	0.071506225
70	0x3cdacd2e	0.026709165
71	0xbdfeb154	-0.124361664
72	0x3d743379	0.0596194
73	0xbd816f8e	-0.063201055
74	0xbb92c9b4	-0.0044796113
75	0x3ce244d5	0.027620712
76	0xbdb14f24	-0.08657673
77	0x3b96d9b0	0.004603587
78	0xbd11d5ab	-0.03560416
79	0x3cb322fa	0.021867264
80	0xbde8d47a	-0.11368652
81	0xbdd402c6	-0.103520915
82	0xbd72aca7	-0.059246685
83	0xbdb54791	-0.08851541
84	0x3cf5419e	0.029938515
85	0xbddcebd0	-0.10787165
86	0x3d809e28	0.06280166
87	0x3cb1bbdf	0.02169603
88	0xbde49bfe	-0.11162566
89	0xbe127817	-0.14303623
90	0x3b71a5bc	0.0036872467
91	0xbbd5df70	-0.00652688
92	0xbdaf9b72	-0.08574571
93	0x3d2dff30	0.042479694
94	0x3de6f614	0.112774044
95	0x3cb2c14b	0.021820685
96	0x3d9fa836	0.077957556
97	0xbd557331	-0.05211181
98	0x3d9619f0	0.07329166
99	0x3c364ba6	0.011126434
100	0x3df8afc5	0.121429004
101	0x3dc38ded	0.095485546
102	0xbc457f5c	-0.012054291
103	0xbdc614c8	-0.096719325
104	0x3d857861	0.06517101
105	0x3dbd72b8	0.092503965
106	0x3dbc801f	0.09204125
107	0x3ae4b1bd	0.001744799
108	0x3c98557a	0.018595446
109	0x3d813f1b	0.063108645
110	0x3d8377f2	0.06419362
111	0xbd4a10a1	-0.049332265
112	0xbd1a6393	-0.037692618
113	0xbdc757a7	-0.09733515
114	0xbd0e38e3	-0.03472222
115	0xbdc7d8a7	-0.0975812
116	0x3daf42c9	0.0855766
117	0xbb94fb6b	-0.004546573
118	0xbdafc362	-0.08582188
119	0x3deafc5c	0.11473915
120	0x3ce78c96	0.028265279
121	0x3c8fc5c8	0.017550364
122	0x3d276acf	0.040873345
123	0x3dc8427b	0.09778305
124	0x3cea5767	0.02860613
125	0xbd99723e	-0.07492493
126	0x3e0a378c	0.13497752
127	0xbc0ce320	-0.008599073
128	0xbd5b7098	-0.053574175
129	0x3d8ce884	0.06880286
130	0x3d88bbb5	0.06676427
131	0xbd98447d	-0.07434938
132	0x3e1350d8	0.14386308
133	0x3d99f7dd	0.07517979
134	0xbd99bf77	-0.07507222
135	0x3af3fec6	0.0018615357
136	0x3c87f546	0.016596448
137	0x3df20193	0.118167065
138	0xbd691656	-0.056906067
139	0x3bbaaafb	0.005696652
140	0xbca634a3	-0.020288771
141	0xbccf233e	-0.02528536
142	0x3b205b0f	0.0024468338
143	0xbdacc4ed	-0.08435998
144	0xbde1f50a	-0.110330656
145	0xbdd612b0	-0.10452783
146	0xb6d6a880	-6.397313e-06
147	0xbd8402c7	-0.06445842
148	0x3e0b6f39	0.13616647
149	0xbc2c5a18	-0.010519527
150	0x3d497ec0	0.049193144
151	0x3cc6fca4	0.02429039
152	0x3d29e6c5	0.041479845
153	0xbb78e7f0	-0.0037980042
154	0x3b337231	0.0027381296
155	0x3da9e082	0.082947746
156	0xbd828937	-0.06373828
157	0xbda22b36	-0.07918398
158	0x3dc40f38	0.09573215
159	0xbde1891c	-0.1101248
160	0xbc3b2716	-0.011422893
161	0x3c9fb8d2	0.019497309
162	0x3d393675	0.04521795
163	0xbda3eb2b	-0.08003839
164	0x3c8b532c	0.017007433
165	0x3e380f77	0.1797465
166	0x3cb31b41	0.021863582
167	0xbdbdda4f	-0.09270155
168	0x3d3ff0b2	0.046860404
169	0xbd2a1d3d	-0.04153179
170	0xbc239b90	-0.009985819
171	0xbd3b86b4	-0.04578276
172	0x3c5fef72	0.013667928
173	0x3cdd8e95	0.027045527
174	0x3d6d3fd0	0.057922184
175	0xbd80885f	-0.06276011
176	0xbbd60075	-0.006530816
177	0xbd7eecfb	-0.06223772
178	0xbc069d9a	-0.008216286
179	0xbb811fd1	-0.0039405604
180	0x3e2e0a5a	0.16996136
181	0xbdb75886	-0.089524314
182	0xbc98fb6c	-0.018674575
183	0x3e0d2869	0.13784947
184	0xbda464d8	-0.08027047
185	0xbb3473ac	-0.0027534766
186	0x3d81ca9a	0.06337471
187	0xbd5c2854	-0.053749397
188	0xbda03d17	-0.07824152
189	0xbd57dc25	-0.05270018
190	0x3c8bc3a4	0.017061062
191	0x3d10b414	0.035327986
192	0xbd0fbb96	-0.035091005
193	0x3d7b30d7	0.061325874
194	0x3cf6d35a	0.030130077
195	0xbd038a07	-0.032114055
196	0x3cb8e2e9	0.022569137
197	0x3ccf4894	0.025303163
198	0x3c970320	0.018434107
199	0xbd2f8b9c	-0.04285775
200	0xbd6f4404	-0.058414474
201	0x3ce43db5	0.027861455
202	0x3dc37177	0.09543126
203	0x3dcd9fb9	0.1004023
204	0xbdc6c809	-0.097061224
205	0x3d4b3081	0.049606804
206	0xbd9e8b18	-0.07741374
207	0xbd71cc39	-0.059032653
208	0x3c2559d8	0.010092221
209	0xbd7f739d	-0.062366117
210	0xbd91dcca	-0.0712219
211	0xbde74c49	-0.11293847
212	0x3e4fccbf	0.20292948
213	0x3d1a14b2	0.037617393
214	0x3d560a9b	0.052256208
215	0x3e109a60	0.1412139
216	0xbd164f03	-0.036696445
217	0xbdc1b4d7	-0.094583206
218	0xba9a5d16	-0.0011777009
219	0xbda8d344	-0.08243421
220	0xbda4e29b	-0.08051034
221	0xbd689334	-0.05678101
222	0x3d5a1caf	0.05325001
223	0x3c9636a7	0.018336607
224	0x3d519374	0.051166013
225	0xbd46e12c	-0.048554584
226	0x3dc0aede	0.09408353
227	0x3d643da5	0.05572285
228	0x3c40c4fa	0.011765713
229	0x3e15314a	0.14569584
230	0xbb295a0a	-0.002584102
231	0xbd9e64b0	-0.07734048
232	0xbd6a5b7a	-0.057216145
233	0x3d3f56af	0.046713527
234	0xbca24ccc	-0.01981201
235	0xbc1c2453	-0.009530145
236	0x3b35100d	0.0027627975
237	0xbda3bcd0	-0.079949975
238	0xbd9176e4	-0.07102755
239	0x3b911d89	0.0044285697
240	0xbdd8d80d	-0.105880834
241	0x3ce50fe4	0.027961679
242	0xbcae2ac9	-0.021260636
243	0xbd920ee1	-0.07131744
244	0x3d553124	0.052048817
245	0xbd41f194	-0.047349527
246	0x3ceecfae	0.029151764
247	0x3df20e22	0.11819102
248	0xbd44c6a1	-0.04804099
249	0xbc0d9868	-0.0086422935
250	0x3d6c4b6c	0.057689115
251	0x3db65931	0.08903731
252	0xbb60fd7b	-0.0034330774
253	0x3d75ec26	0.06003966
254	0xbc3c0f9f	-0.011478334
255	0x3d14b76b	0.036307734

sequential_2/conv2d_2/Conv2D f4 [64, 3, 3, 64]
0	0x3be2f199	0.0069257733
1	0xbb5585c6	-0.0032580956
2	0x3d2e7ef4	0.04260154
3	0xbd92afcd	-0.071624376
4	0x3d63ee5e	0.055647247
5	0x3dcf5a57	0.10124653
6	0xbc4c8751	-0.012483434
7	0xbc6768dd	-0.014124122
8	0x3d334075	0.043762643
9	0xbdad9e66	-0.08477478
10	0xbd1a8ec4	-0.03773381
11	0x3d87e08d	0.066346265
12	0x3ba9dfdc	0.005184157
13	0x3c01f6c0	0.007932365
14	0x3d09a4be	0.033604376
15	0xbd6847d7	-0.056709137
16	0xbcfda095	-0.03096036
17	0xbda369bf	-0.07979154
18	0xbcb33774	-0.021877028
19	0xbdf8af62	-0.121428266
20	0xbcc73c37	-0.024320705
21	0x3da13290	0.07870972
22	0xbd86ed93	-0.065882824
23	0x3bcb3782	0.0062016854
24	0xbd3d5f10	-0.046233237
25	0xbdaf143f	-0.085487835
26	0x3cc8fdde	0.024535116
27	0xbccc103f	-0.02491009
28	0xbe110c93	-0.14164953
29	0x3cb363c3	0.021898156
30	0xbd62bfa4	-0.055358544
31	0xbd9c1ed8	-0.076230705
32	0x3d7d820c	0.0618916
33	0x3d96859f	0.07349705
34	0xbd2992c7	-0.041399743
35	0x3d980ef3	0.07424726
36	0x3be67034	0.0070324186
37	0xbd27a2ce	-0.040926747
38	0xbcaf5aea	-0.021405656
39	0x3d4125c1	0.047155146
40	0xbda9e974	-0.08296481
41	0xbd8eebfb	-0.069786035
42	0x3d292d6e	0.04130309
43	0xbd17c909	-0.037056956
44	0x3af7f7ba	0.0018918433
45	0xbd327d88	-0.043576747
46	0xbc3878dc	-0.011259284
47	0x3e1c6bba	0.1527547
48	0x3d01a667	0.031652834
49	0xbc66cfc5	-0.014087622
50	0xbd6bb6e5	-0.05754747
51	0x3d8f4736	0.06996004
52	0xbc8a6cab	-0.01689752
53	0x3cb8b8e9	0.02254911
54	0x3d858e75	0.06521312
55	0xba76c3d2	-0.0009413335
56	0x3b2d94cb	0.0026486393
57	0x3d6515e2	0.055929072
58	0x3e2c9c79	0.16856565
59	0x3da98a8f	0.08278381
60	0x3d258f5a	0.040419914
61	0xbcffa53e	-0.031206723
62	0x3b4e1735	0.0031446938
63	0x3d781c3d	0.060573805
64	0xbda29f49	-0.079405375
65	0x3bc5b1a4	0.0060331393
66	0x3cdf4299	0.027253436
67	0x3d7c25c4	0.061559454
68	0xbdacb7c7	-0.0843349
69	0xbcdd6bba	-0.027028907
70	0x3ce0e6f5	0.027453879
71	0xbc7d85d8	-0.015473805
72	0x3e11837c	0.14210314
73	0xbcc2b281	-0.023766758
74	0x3da0896d	0.07838712
75	0x3d5afdd2	0.05346472
76	0xbd6b3950	-0.057427704
77	0x3d36b458	0.044605583
78	0xbccbdb07	-0.024884714
79	0x3d2fe8a1	0.04294646
80	0x3d5e52cf	0.05427819
81	0xbdc0a14a	-0.094057634
82	0x3d153d69	0.03643552
83	0xbd991866	-0.07475357
84	0x3b243f4c	0.0025062142
85	0x3d63a1aa	0.055574097
86	0xbce77d0b	-0.028257867
87	0xbc969f18	-0.018386409
88	0x3d428784	0.04749252
89	0xbc61a857	-0.0137730455
90	0x3d3b5578	0.045735806
91	0xbcd7c8e9	-0.026340919
92	0xbdc1f778	-0.09471029
93	0x3d52dd10	0.051480353
94	0xbcce8cb3	-0.025213575
95	0xbe38b173	-0.18036442
96	0xbc301e11	-0.010749356
97	0x3da04cd5	0.078271545
98	0xbc938b1a	-0.018010665
99	0xbd108b26	-0.035288952
100	0xbd723f61	-0.059142474
101	0xbd237462	-0.039905913
102	0xbd82a697	-0.06379431
103	0xbc8d6058	-0.017257854
104	0xbca433cb	-0.020044228
105	0x3d3b9419	0.045795534
106	0x3ddb7202	0.10715105
107	0xbd8ba242	-0.068180576
108	0x3ab7e6b7	0.001403055
109	0xbbea7861	-0.0071554636
110	0xbbffff1a	-0.007812393
111	0x3e0410e8	0.12897074
112	0x3c1954dc	0.009358611
113	0xbcd4c600	-0.02597332
114	0xbcecf2bb	-0.028924337
115	0xbd926ad5	-0.07149283
116	0x3cac7d10	0.021055728
117	0x3d2aec51	0.041729275
118	0x3d90232f	0.07037961
119	0xbcb3c74f	-0.021945624
120	0x3d407491	0.046986166
121	0x3d0e2ae6	0.03470888
122	0xbd194216	-0.03741654
123	0x3d19decc	0.03756599
124	0x3b677a4b	0.0035320695
125	0xbd7cc2a6	-0.06170907
126	0xbd7baf97	-0.061446752
127	0xbd8baeeb	-0.06820472
128	0xbd4c3e67	-0.0498642
129	0x3c66b22c	0.014080565
130	0x3d01b95a	0.031670906
131	0x3c0a875c	0.008455124
132	0xbc9ac286	-0.018891584
133	0x3dc661d5	0.09686629
134	0xbd528f28	-0.051406056
135	0x3cc9d882	0.024639372
136	0xbd171498	-0.036884874
137	0xba899707	-0.001049728
138	0xbaa0859b	-0.0012246849
139	0x3b1664be	0.002294823
140	0x3cf58b5f	0.029973684
141	0xbc1e3d5c	-0.009658184
142	0xbc0c9518	-0.008580469
143	0x3d385c7f	0.045010086
144	0xbd0475ac	-0.032338783
145	0x3d45372b	0.048148315
146	0xbae584cf	-0.0017510894
147	0xbdab354c	-0.08359775
148	0xbba7c10b	-0.005119448
149	0x3da73db9	0.081660695
150	0x3d10b602	0.035329826
151	0xbd0baeed	-0.03410237
152	0xbd3542e0	-0.04425323
153	0xbda3eabf	-0.08003759
154	0x3d059968	0.032617003
155	0xbd2251fe	-0.039628975
156	0xbd51ad19	-0.05119047
157	0xbd26b465	-0.04069938
158	0xbd60c3ff	-0.054874416
159	0xbe66a988	-0.22525609
160	0xbdcda61f	-0.10041451
161	0x3d50c4b3	0.050968837
162	0xbd825087	-0.063630156
163	0x3b769f23	0.0037631474
164	0xbc028a88	-0.007967599
165	0xbe180d0f	-0.14848731
166	0x3c9ee6a1	0.019397082
167	0x3dbc52ef	0.09195506
168	0x3bef9449	0.007311378
169	0x3da9841b	0.0827715
170	0x3d9ac9f0	0.07558048
171	0x3c30ee0b	0.010798941
172	0x3c1900be	0.009338556
173	0xbd93d423	-0.07218196
174	0x3cd6d4df	0.026224552
175	0x3de5a35b	0.11212798
176	0xbd62fdf5	-0.055417974
177	0xbc0a7754	-0.008451302
178	0x3c756aac	0.014979046
179	0xbd9e2f0b	-0.077238165
180	0xbc96cdca	-0.018408675
181	0xbd98964e	-0.07450543
182	0xbc5aa41c	-0.013344791
183	0x3cceef66	0.025260638
184	0x3d53fa01	0.051752094
185	0x3d2a88cb	0.041634362
186	0xbc9d3a23	-0.01919276
187	0x3cac3132	0.021019552
188	0x3d49c5a3	0.049260747
189	0x3d52cacc	0.051462933
190	0xbb8ce2f9	-0.004299518
191	0xbd86a5da	-0.065746024
192	0xbd9edcf6	-0.07756989
193	0xbcc97891	-0.024593623
194	0x3da5aaef	0.080892436
195	0xbde4ad89	-0.11165912
196	0xbcc17e88	-0.023619905
197	0xbbc5e695	-0.0060394504
198	0xbd1d109d	-0.03834592
199	0xbcdc5c27	-0.02689941
200	0x3d291ddc	0.04128824
201	0xbc3fc643	-0.011704984
202	0xbc8a17ed	-0.016857112
203	0xbd52c8c6	-0.051461004
204	0xbd98073c	-0.07423255
205	0x3d0171db	0.03160272
206	0xbc928343	-0.017884856
207	0xbd9792e9	-0.07401068
208	0xbc8cee3e	-0.017203446
209	0xbd9dfe8b	-0.07714566
210	0xbd094a47	-0.033518102
211	0xbd73eca6	-0.059551857
212	0x3daffc42	0.08593036
213	0x3c8ee118	0.017441317
214	0xbd6460e5	-0.05575647
215	0xbbf3eb5b	-0.007443828
216	0xbcfce01a	-0.030868579
217	0xbc7fb4f7	-0.01560711
218	0xbc7d4cf5	-0.0154602425
219	0x3c733f5c	0.014846649
220	0xbe421c5d	-0.18956132
221	0xbda06617	-0.07831972
222	0x3cd44686	0.025912534
223	0xbbabf1f1	-0.0052473475
224	0xbd1951fb	-0.0374317
225	0x3d77db98	0.060512155
226	0xbd19cc75	-0.0375485
227	0x3c7e4bb1	0.015520976
228	0xbd110d95	-0.035413343
229	0xbc19f513	-0.009396809
230	0xbd9bf3dd	-0.076148726
231	0xbd0f00a9	-0.03491274
232	0xbd79a6b2	-0.06094999
233	0xbd9699b4	-0.07353535
234	0x3d3b9dce	0.04580479
235	0x3d0d61ac	0.034516975
236	0x3d4d7905	0.05016424
237	0x3ba8289a	0.005131793
238	0x3d84670c	0.06464967
239	0x3d6ebff8	0.058288544
240	0xbda0ed2c	-0.07857737
241	0xbceb16ce	-0.028697398
242	0xbd2f8197	-0.042848196
243	0x3d1dc912	0.038521834
244	0xbc9af8bb	-0.018917432
245	0xbd8f60d7	-0.070008926
246	0x3d66a0fb	0.056305867
247	0x3d08b3b5	0.033374507
248	0xbd4af999	-0.04955444
249	0xbc824421	-0.015901627
250	0xbdb15d08	-0.086603224
251	0x3a9a2ac0	0.0011762008
252	0xbd503133	-0.05082817
253	0x3ccb6309	0.024827497
254	0x3d0a4933	0.033761214
255	0xbd5bc336	-0.053652965

sequential_2/conv2d_3/Conv2D f4 [64, 3, 3, 64]
0	0x3cbe3e3d	0.023223037
1	0xbb946590	-0.0045287088
2	0xbad128b7	-0.0015957569
3	0xbda045f9	-0.07825846
4	0x3d8db7b6	0.06919806
5	0xbcf292fc	-0.029611103
6	0xbd2687dd	-0.040656913
7	0x3cc2a532	0.023760412
8	0xbdafc2ff	-0.085821144
9	0xbcb36154	-0.021896996
10	0xbd6a9196	-0.057267748
11	0x3b532b3b	0.0032221812
12	0xbcadf0ac	-0.021232925
13	0x3c6a2220	0.014290363
14	0x3c0fd79b	0.008779432
15	0x3d06ba19	0.03289232
16	0x3df4204e	0.11920224
17	0xbdb8694a	-0.09004457
18	0xbc957686	-0.018244993
19	0xbcd735eb	-0.026270827
20	0xbd233b2a	-0.039851345
21	0x3d26e79c	0.040748224
22	0xbd267edd	-0.04064833
23	0x3ca29a22	0.019848887
24	0x3d050219	0.032472704
25	0x3e0d2787	0.1378461
26	0xbbb45af7	-0.005504008
27	0xbb8f782d	-0.0043783397
28	0x3d84cd70	0.064844966
29	0x3d8c56ad	0.068524696
30	0xbc0f0cea	-0.008731106
31	0xbc3ba5a4	-0.011453066
32	0xbd1c0f28	-0.03810039
33	0x3d488b88	0.048961192
34	0xbd55899a	-0.05213318
35	0x3d2911b9	0.041276667
36	0x3b97dd66	0.004634547
37	0xbc9c4104	-0.01907397
38	0x3de695d1	0.11259044
39	0xbd2cfe6f	-0.042234834
40	0xbd0ffefe	-0.03515529
41	0xbdf9ec4e	-0.12203275
42	0x3cd7d52b	0.026346764
43	0xbd17b7d8	-0.03704056
44	0x3deb96f8	0.115034044
45	0xbc222d0c	-0.009898435
46	0xbdc410ee	-0.095735416
47	0xbcef3657	-0.029200716
48	0xbdef6dd8	-0.11690873
49	0x3d228041	0.039673094
50	0xbd06ea02	-0.03293801
51	0x3d4c2f93	0.049850058
52	0xbdb23f41	-0.08703471
53	0xbda7910a	-0.08181961
54	0xbd3ad719	-0.04561529
55	0x3d8485d7	0.064708404
56	0x3bcf539c	0.0063271057
57	0xbd12f3fa	-0.035877205
58	0x3da38192	0.07983698
59	0x3af8c85d	0.0018980611
60	0xbc0e0737	-0.008668712
61	0xbd2fd3ef	-0.042926725
62	0xbd768396	-0.060184084
63	0x3c9aba27	0.018887592
64	0x3df58c87	0.11989694
65	0x3d559466	0.052143477
66	0x3d87c6be	0.06629704
67	0xbd87ba67	-0.0662735
68	0x3d1e2659	0.03861079
69	0x3d1bf7fa	0.038078286
70	0x3d38f2a8	0.04515329
71	0xbd92358e	-0.07139121
72	0x3c3e0c78	0.0115996525
73	0x3d6c4269	0.05768052
74	0x3b692fa1	0.0035581368
75	0xbd934213	-0.07190337
76	0xbd3c4181	-0.045960907
77	0x3d2aeab4	0.041727737
78	0x3cb4761e	0.022028979
79	0x3d136bdc	0.035991535
80	0x3dc8f2dd	0.098119475
81	0xbdc4aad3	-0.09602895
82	0xbd75a0cb	-0.059967797
83	0xbb9f7179	-0.004865822
84	0x3c712c06	0.014719969
85	0xbce4836c	-0.027894698
86	0x3da1d569	0.07902033
87	0xbc2443b9	-0.010025912
88	0x3d72b101	0.059250835
89	0x3c990870	0.018680781
90	0xbdf8ee1e	-0.12154792
91	0xbd78e2a4	-0.060763016
92	0x3d77f99f	0.06054079
93	0x3dde2acd	0.10848007
94	0xbd8028c7	-0.06257778
95	0xbcd61447	-0.026132716
96	0xbd4a1b46	-0.049342416
97	0xbd5ac609	-0.053411517
98	0xbc27d53c	-0.01024371
99	0x39d908b7	0.00041395958
100	0xbd1080e6	-0.035279177
101	0x3c81b58c	0.015833639
102	0x3dd22853	0.102615975
103	0xbc96ecf8	-0.018423542
104	0x3cca45d4	0.0246915
105	0xbd35b4dc	-0.044361934
106	0x3d52f9fd	0.05150794
107	0xbd5ceafd	-0.05393504
108	0x3d9c7cf1	0.07641018
109	0x3be7537f	0.007059514
110	0xbdd75fe3	-0.10516336
111	0x3d1ecffe	0.038772576
112	0xbada46e7	-0.0016653211
113	0xbd83993f	-0.06425714
114	0x3d6f059d	0.058354963
115	0x3c91a028	0.017776564
116	0xbcb4641e	-0.022020396
117	0xbe1484a4	-0.14503723
118	0xbb1a5aa1	-0.0023552554
119	0x3cc22245	0.023697982
120	0xbdc1492d	-0.09437785
121	0x3c93b5b3	0.018030977
122	0x3d9cf939	0.07664723
123	0x3cc3d48a	0.023905057
124	0xbd61616c	-0.05502455
125	0xbc7dadef	-0.0154833635
126	0xbcce5af4	-0.025189854
127	0xbcc7aa41	-0.024373176
128	0xbb95922a	-0.0045645433
129	0x3d1848a2	0.037178643
130	0x3d08833b	0.033328276
131	0x3a8e6736	0.00108645
132	0x3d29dabb	0.041468363
133	0x3b596671	0.0033172632
134	0xbc90115e	-0.017586406
135	0xbd7073c1	-0.05870414
136	0xbd97dab3	-0.074147604
137	0xbcd4f4ff	-0.02599573
138	0xbd439c7f	-0.04775667
139	0xbd846b4c	-0.06465778
140	0xbd1aa637	-0.03775617
141	0x3baf6ca3	0.0053535267
142	0x3cd0958d	0.025461936
143	0xbda1d67c	-0.07902238
144	0xbc354817	-0.011064551
145	0x3d7519ba	0.059838988
146	0xbcbefd9f	-0.023314295
147	0x3d049aea	0.0323743
148	0xbcd70c36	-0.02625094
149	0xbd397762	-0.045279868
150	0x3d1c3916	0.03814038
151	0x3d3aa609	0.0455685
152	0x3d6c7a83	0.057734024
153	0xbd8fc138	-0.070192754
154	0xbd8907da	-0.06690951
155	0xbd068b6b	-0.032847803
156	0xbd952315	-0.07282082
157	0xbcce5a5f	-0.025189577
158	0x3cadfb11	0.021237882
159	0x3bfd9313	0.00773848
160	0x3d3fcd83	0.04682685
161	0xbd158227	-0.036501076
162	0x3d5c79fc	0.05382727
163	0x3d032269	0.032015238
164	0x3d8f539c	0.06998369
165	0x3d1431f7	0.036180463
166	0x3bf04921	0.0073329364
167	0x3d1ab2fe	0.037768357
168	0x3c6dfc95	0.014525552
169	0xbd951ea0	-0.07281232
170	0x3cfbe067	0.030746652
171	0x3cb43ef5	0.022002677
172	0xbdc8db35	-0.098074354
173	0x3d225ff5	0.039642293
174	0xbd50019c	-0.050782785
175	0xbbb44c0a	-0.0055022286
176	0x3cfb52e7	0.03067918
177	0xbda49288	-0.08035761
178	0x3cb81153	0.022469198
179	0x3cfb9b19	0.030713605
180	0xbc8d5fc2	-0.017257575
181	0xbd21ffcf	-0.0395506
182	0xbcb650f2	-0.022255395
183	0xbd144771	-0.036200944
184	0xbcc916a0	-0.024546921
185	0x3b95730a	0.004560833
186	0xbc5bd3de	-0.013417212
187	0xbd4f96c4	-0.05068089
188	0x3d89932f	0.06717526
189	0xbd7ef149	-0.062241826
190	0xbca395a5	-0.019968817
191	0x3d0a71d9	0.03379998
192	0x3e1ee5b9	0.1551732
193	0xbda4e0cb	-0.08050688
194	0xbd743004	-0.059616104
195	0x3b985dcb	0.004649853
196	0x3da64588	0.08118731
197	0xbcf42ce3	-0.02980656
198	0xbdac0677	-0.083996706
199	0xbd6056ff	-0.054770466
200	0xbd391320	-0.045184255
201	0x3d6273c0	0.05528617
202	0xbdca5682	-0.09879781
203	0xbdcb1ab6	-0.09917204
204	0x3e1b3e7d	0.15160556
205	0x3b55a8ab	0.0032601755
206	0x3c344c32	0.0110044945
207	0x3e0ac910	0.13553262
208	0x3df4e341	0.11957408
209	0xbd81aa52	-0.06331314
210	0x3d3ff77a	0.04686687
211	0xbd71d774	-0.059043363
212	0x3d183f16	0.03716954
213	0xbd6477c6	-0.055778287
214	0xbcab3375	-0.02089856
215	0xbb817867	-0.0039511207
216	0xbc22a8e9	-0.009927967
217	0x3de03ff2	0.109496966
218	0xbd751da6	-0.059842728
219	0x3d9ef97c	0.07762429
220	0xbd3c1fa5	-0.045928616
221	0x3e21566b	0.15755622
222	0x3da335d2	0.0796925
223	0xbd80120f	-0.062534444
224	0xbdb0cc65	-0.08632735
225	0xbd361b47	-0.044459607
226	0xbd825c58	-0.063652694
227	0xbcfeb1e6	-0.031090688
228	0xbd7643bc	-0.06012319
229	0xbda562a8	-0.08075458
230	0x3df03cbe	0.11730336
231	0xbd41529d	-0.047197927
232	0xbc2616fd	-0.010137317
233	0x3cbd5c30	0.023115247
234	0x3e0dd9fe	0.13852689
235	0x3d545039	0.05183432
236	0x3e49ee9a	0.19719926
237	0xbdeee221	-0.116642244
238	0xbd25c9d7	-0.040475693
239	0x3d309f5f	0.043120738
240	0xbd8d8586	-0.06910233
241	0x3d343492	0.043995447
242	0x3cf5dd0c	0.03001263
243	0xbd8f06f8	-0.06983751
244	0xbdb4bac2	-0.08824684
245	0x3ccb922a	0.02484997
246	0x3d206633	0.039159965
247	0x3c9cb9c8	0.019131556
248	0x3cbe6a11	0.023243936
249	0x3d1d9394	0.03847082
250	0xba1db90b	-0.0006016648
251	0xbd4fb2b3	-0.05070753
252	0x3c75c5ae	0.015000744
253	0x3d22309c	0.03959714
254	0xbc8e7ff5	-0.017394999
255	0x3bdfb1f6	0.0068266345

sequential_2/conv2d_4/Conv2D f4 [64, 3, 3, 64]
0	0xbcbd1650	-0.023081928
1	0xbc9fb349	-0.01949467
2	0xbc2d7fd0	-0.010589555
3	0xbd0aba8d	-0.033869315
4	0xbd000352	-0.031253166
5	0xbd08d84a	-0.033409394
6	0xbce40cbd	-0.027838105
7	0xbd81a1e3	-0.063297056
8	0xbd2700d3	-0.04077227
9	0x3d1162ce	0.035494618
10	0xbb84004c	-0.0040283557
11	0x3d0068aa	0.031349815
12	0x3d1ef653	0.03880913
13	0x3c797c93	0.015227455
14	0xbc1381f9	-0.009003156
15	0xbc916753	-0.017749464
16	0xbd862e1e	-0.06551765
17	0xbd1ba4bc	-0.0379989
18	0xbc3942b8	-0.011307411
19	0xbc29f961	-0.010374398
20	0xbd5c62e2	-0.05380524
21	0xbd3840e3	-0.044983756
22	0x3cb123cd	0.021623516
23	0xbd9831ad	-0.0743135
24	0x3e29ca44	0.16581064
25	0xbd521f21	-0.051299218
26	0x3d9ab8bb	0.07554766
27	0x3d562e83	0.05229045
28	0xbd266e54	-0.04063256
29	0xbd22f134	-0.03978081
30	0x3cf653cf	0.03006926
31	0xbd21d030	-0.039505184
32	0x3b810d8d	0.003938383
33	0x3d89bc15	0.06725327
34	0xbc3dec6c	-0.011592012
35	0xbdc5e671	-0.09663094
36	0x3b7d66dd	0.0038666048
37	0x3cc2ceac	0.02378019
38	0x3ded90db	0.115998946
39	0xbca0aaa5	-0.01961262
40	0xbdea413e	-0.11438225
41	0xbd0bf294	-0.034166887
42	0x3cbf37a8	0.023341969
43	0xbd35ad98	-0.044355005
44	0x3d156576	0.036473714
45	0x3d65489b	0.055977445
46	0x3c6acb20	0.014330655
47	0xbd59580b	-0.05306248
48	0xbcf1c086	-0.029510748
49	0x3d7140c2	0.05889965
50	0x3d1c7f9a	0.038207628
51	0x3a8366cb	0.0010025142
52	0x3de91a60	0.11381984
53	0x3ca0f544	0.019648202
54	0xbd32e3cb	-0.04367427
55	0xbd09a598	-0.033605188
56	0xbd058b10	-0.032603323
57	0xbb8e19e5	-0.004336583
58	0xbdc121dc	-0.09430286
59	0xbd81396c	-0.063097805
60	0x38c5ee9c	9.4381365e-05
61	0xbcb40d1d	-0.02197891
62	0xbdafa872	-0.0857705
63	0x3d4624ff	0.048375126
64	0xbdb7c023	-0.08972194
65	0xbc66b2b7	-0.014080695
66	0xbc828422	-0.015932146
67	0xbd8b4401	-0.0680008
68	0x3d38d983	0.04512931
69	0x3d2e462e	0.042547397
70	0x3cd72eae	0.026267376
71	0xbd850d10	-0.06496632
72	0xbd70d5dd	-0.058797706
73	0x3d6eb6e2	0.05827988
74	0x3d830714	0.063978344
75	0x3d09de75	0.033659417
76	0x3c6c6ec0	0.014430702
77	0xbb7de54d	-0.003874141
78	0xbe26bb04	-0.16282278
79	0xbcb9d5fd	-0.022685045
80	0xbe386fad	-0.18011351
81	0xbd778643	-0.060430776
82	0xbd30aed1	-0.043135468
83	0xbc56096e	-0.013063772
84	0xbdc533eb	-0.09629043
85	0x3d76f505	0.060292263
86	0xbd8e4199	-0.069461055
87	0xbde499ca	-0.111621454
88	0x3e017b04	0.12644583
89	0xbdc29557	-0.095011406
90	0xbd64fc6f	-0.055904802
91	0x3ce40515	0.027834455
92	0x3c628569	0.013825753
93	0xbdd46387	-0.10370546
94	0x3d1effd7	0.038818207
95	0xbdac9199	-0.08426208
96	0xbd88ccf0	-0.06679714
97	0x3c63b5bc	0.013898309
98	0x3cf4322d	0.029809082
99	0x3d5edd63	0.05441035
100	0xbd813ae9	-0.06310064
101	0x3caf5d6b	0.02140685
102	0xbbcc3b9d	-0.0062326924
103	0x3bc15aa8	0.0059006996
104	0xbdb56215	-0.08856598
105	0x3d243f79	0.040099595
106	0x3da87a59	0.08226461
107	0x3ca10f45	0.019660601
108	0x3d994f2f	0.07485806
109	0xbd779659	-0.060446117
110	0x3c9190b1	0.01776919
111	0xbd66b0d5	-0.056320984
112	0xbe2b7f76	-0.16747841
113	0x3d33537b	0.043780785
114	0x3bc94030	0.006141685
115	0x3cd3c750	0.025851876
116	0x3df38fef	0.118926875
117	0x3d533e23	0.05157293
118	0x3d58f03b	0.052963477
119	0xbbcd9fc0	-0.006275147
120	0xbd70bae9	-0.058772
121	0xbc889aa9	-0.01667531
122	0xbd86ae2e	-0.06576191
123	0xbd8d24db	-0.06891795
124	0x3d0e0415	0.03467186
125	0xbe037752	-0.12838486
126	0xbd1b491f	-0.03791153
127	0x3d03b170	0.03215164
128	0xbcc7df58	-0.02439849
129	0x3c41df66	0.0118330475
130	0x3c99ff02	0.018798355
131	0x3cbdc35f	0.02316445
132	0x3d8449d7	0.06459396
133	0x3dabd396	0.08389966
134	0x39801ae6	0.00024434103
135	0xbdc7b182	-0.09750654
136	0x3d8d4aca	0.068990305
137	0x3c926ebc	0.017875068
138	0xbc503e05	-0.012710099
139	0x3d3aa840	0.045570612
140	0x3cadb954	0.021206535
141	0x3cd2c446	0.025728356
142	0x3b7f1e20	0.0038927868
143	0x3d7da36f	0.06192344
144	0xbc4cf565	-0.0125096785
145	0xbd980b24	-0.07424
146	0x3ca2dd10	0.019880801
147	0x3d1a9b02	0.037745483
148	0xbc92b50d	-0.017908597
149	0xbcaa19a3	-0.020764178
150	0xbcb18259	-0.0216686
151	0x3d0d135e	0.034442298
152	0x3dfe7922	0.12425448
153	0xbd87e0f8	-0.06634706
154	0x3d6433fb	0.055713635
155	0x3d9eceb6	0.07754271
156	0xbc6db084	-0.014507417
157	0xbb9aa6a1	-0.0047195707
158	0x3da607f1	0.081069835
159	0x3b0034bd	0.0019562684
160	0xbd3ee801	-0.046607975
161	0x3d065c6a	0.032802977
162	0x3de88d6f	0.11355101
163	0x3c97d21a	0.018532801
164	0xbd0deb08	-0.03464797
165	0x3d9c672d	0.07636867
166	0x3d94523c	0.072422475
167	0x3d86af5a	0.065764144
168	0xbc0c720b	-0.008572112
169	0xbd600176	-0.054688893
170	0x3db8aac2	0.090169445
171	0xbc31d7be	-0.01085466
172	0xbd8864e6	-0.0665987
173	0xbd64df1a	-0.05587683
174	0x3cdccfcd	0.026954556
175	0x3da2e22e	0.079532966
176	0xbd968b77	-0.073508196
177	0x3dda90d9	0.10672159
178	0xb9b681b8	-0.00034810393
179	0x3d1b0014	0.03784187
180	0x3e0e785e	0.13913104
181	0x3c9a43de	0.01883119
182	0xbd3b3d29	-0.045712624
183	0x3d373275	0.044725854
184	0xbd03b022	-0.032150395
185	0x3dc18a2c	0.09450182
186	0xbc4abf75	-0.0123747485
187	0xbce51504	-0.027964123
188	0xbc9232ef	-0.017846553
189	0xbd28db84	-0.04122497
190	0x3d568bb4	0.052379325
191	0xbd10c0bb	-0.035340052
192	0x3d7ff761	0.06249178
193	0x3cd9a096	0.026565831
194	0xbd9457f6	-0.0724334
195	0x3d1528b4	0.03641577
196	0xbcbc35e2	-0.022974912
197	0xbd81dcc3	-0.06340935
198	0xbd6d38f3	-0.05791564
199	0x3d3cd207	0.046098735
200	0x3b3081f4	0.0026932927
201	0x3d2e8bbc	0.04261373
202	0x3d14d4f3	0.036335897
203	0xbad051b0	-0.0015893485
204	0xbd49ffeb	-0.049316328
205	0xbdbfa623	-0.0935786
206	0x3bae05c6	0.005310747
207	0xbd240a25	-0.040048737
208	0x3c91b81a	0.017787982
209	0xbc338d33	-0.0109589575
210	0xbd23cf46	-0.039992593
211	0xbd88121f	-0.06644081
212	0x3c0d5499	0.008626127
213	0x3d84004a	0.06445368
214	0x3d331655	0.04372247
215	0xbb984547	-0.0046469304
216	0x3d809652	0.06278671
217	0xbc381486	-0.011235362
218	0xbd80f683	-0.062970184
219	0xbd44b636	-0.048025332
220	0xbd9671d5	-0.073459305
221	0x3c8dbfdf	0.017303405
222	0xbcb4b4d8	-0.02205889
223	0xbc8cb361	-0.017175378
224	0x3d8a2acd	0.06746445
225	0xbd6c7090	-0.057724535
226	0x3d56815f	0.05236947
227	0xbc1ddf8a	-0.009635815
228	0x3d9eae30	0.077480674
229	0xbd438ce7	-0.047741797
230	0x3e44058c	0.19142741
231	0x3d1dcbd1	0.038524453
232	0x3ca89f38	0.020583734
233	0xbd62bc99	-0.055355642
234	0xbdba835a	-0.091070846
235	0x3d19a607	0.03751185
236	0xbbc787a7	-0.006089169
237	0xbc3b5851	-0.0114346305
238	0xbce6b787	-0.028163685
239	0xbc8a7a12	-0.01690391
240	0x3d98fb8a	0.07469852
241	0xbd6466c7	-0.05576208
242	0x3c61eedc	0.013789859
243	0x3b817bd7	0.0039515304
244	0x3c147810	0.009061828
245	0x3baa99f6	0.005206342
246	0xbd56b8b1	-0.05242223
247	0x3d1b6b73	0.03794427
248	0xbd83c4be	-0.0643401
249	0xbcfefce4	-0.031126447
250	0xbdbf04c9	-0.093270846
251	0x3daec88a	0.085343435
252	0x3d58b613	0.052908015
253	0xbd908472	-0.07056512
254	0xbbb972f3	-0.005659455
255	0x3d9ca22d	0.0764812
